…
2024-05-07 17:46:21,415 WARNING: Some model parameters or buffers are not found in the checkpoint:
['norm0.weight', 'norm0.bias', 'norm1.weight', 'norm1.bias', 'norm2.weight', 'norm2.bias', 'norm3.weight', 'norm3.bias']
2024-05-07 17:46:21,415 WARNING: The checkpoint state_dict contains keys that are not used by the model:
['head.weight', 'head.bias']
2024-05-07 17:46:21,976 INFO: Network [DDColor] is created.
2024-05-07 17:46:22,224 INFO: Network: DistributedDataParallel - DDColor, with parameters: 227,869,328
2024-05-07 17:46:22,224 INFO: DDColor(
  (encoder): Encoder(
    (arch): ConvNeXt(
      (downsample_layers): ModuleList(
        (0): Sequential(
          (0): Conv2d(3, 192, kernel_size=(4, 4), stride=(4, 4))
          (1): LayerNorm()
        )
        (1): Sequential(
          (0): LayerNorm()
          (1): Conv2d(192, 384, kernel_size=(2, 2), stride=(2, 2))
        )
        (2): Sequential(
          (0): LayerNorm()
          (1): Conv2d(384, 768, kernel_size=(2, 2), stride=(2, 2))
        )
        (3): Sequential(
          (0): LayerNorm()
          (1): Conv2d(768, 1536, kernel_size=(2, 2), stride=(2, 2))
        )
      )
      (stages): ModuleList(
        (0): Sequential(
          (0): Block(
            (dwconv): Conv2d(192, 192, kernel_size=(7, 7), stride=(1, 1), padding=(3, 3), groups=192)
            (norm): LayerNorm()
            (pwconv1): Linear(in_features=192, out_features=768, bias=True)
            (act): GELU(approximate='none')
            (pwconv2): Linear(in_features=768, out_features=192, bias=True)
            (drop_path): Identity()
          )
          (1): Block(
            (dwconv): Conv2d(192, 192, kernel_size=(7, 7), stride=(1, 1), padding=(3, 3), groups=192)
            (norm): LayerNorm()
            (pwconv1): Linear(in_features=192, out_features=768, bias=True)
            (act): GELU(approximate='none')
            (pwconv2): Linear(in_features=768, out_features=192, bias=True)
            (drop_path): Identity()
          )
          (2): Block(
            (dwconv): Conv2d(192, 192, kernel_size=(7, 7), stride=(1, 1), padding=(3, 3), groups=192)
            (norm): LayerNorm()
            (pwconv1): Linear(in_features=192, out_features=768, bias=True)
            (act): GELU(approximate='none')
            (pwconv2): Linear(in_features=768, out_features=192, bias=True)
            (drop_path): Identity()
          )
        )
        (1): Sequential(
          (0): Block(
            (dwconv): Conv2d(384, 384, kernel_size=(7, 7), stride=(1, 1), padding=(3, 3), groups=384)
            (norm): LayerNorm()
            (pwconv1): Linear(in_features=384, out_features=1536, bias=True)
            (act): GELU(approximate='none')
            (pwconv2): Linear(in_features=1536, out_features=384, bias=True)
            (drop_path): Identity()
          )
          (1): Block(
            (dwconv): Conv2d(384, 384, kernel_size=(7, 7), stride=(1, 1), padding=(3, 3), groups=384)
            (norm): LayerNorm()
            (pwconv1): Linear(in_features=384, out_features=1536, bias=True)
            (act): GELU(approximate='none')
            (pwconv2): Linear(in_features=1536, out_features=384, bias=True)
            (drop_path): Identity()
          )
          (2): Block(
            (dwconv): Conv2d(384, 384, kernel_size=(7, 7), stride=(1, 1), padding=(3, 3), groups=384)
            (norm): LayerNorm()
            (pwconv1): Linear(in_features=384, out_features=1536, bias=True)
            (act): GELU(approximate='none')
            (pwconv2): Linear(in_features=1536, out_features=384, bias=True)
            (drop_path): Identity()
          )
        )
        (2): Sequential(
          (0): Block(
            (dwconv): Conv2d(768, 768, kernel_size=(7, 7), stride=(1, 1), padding=(3, 3), groups=768)
            (norm): LayerNorm()
            (pwconv1): Linear(in_features=768, out_features=3072, bias=True)
            (act): GELU(approximate='none')
            (pwconv2): Linear(in_features=3072, out_features=768, bias=True)
            (drop_path): Identity()
          )
          (1): Block(
            (dwconv): Conv2d(768, 768, kernel_size=(7, 7), stride=(1, 1), padding=(3, 3), groups=768)
            (norm): LayerNorm()
            (pwconv1): Linear(in_features=768, out_features=3072, bias=True)
            (act): GELU(approximate='none')
            (pwconv2): Linear(in_features=3072, out_features=768, bias=True)
            (drop_path): Identity()
          )
          (2): Block(
            (dwconv): Conv2d(768, 768, kernel_size=(7, 7), stride=(1, 1), padding=(3, 3), groups=768)
            (norm): LayerNorm()
            (pwconv1): Linear(in_features=768, out_features=3072, bias=True)
            (act): GELU(approximate='none')
            (pwconv2): Linear(in_features=3072, out_features=768, bias=True)
            (drop_path): Identity()
          )
          (3): Block(
            (dwconv): Conv2d(768, 768, kernel_size=(7, 7), stride=(1, 1), padding=(3, 3), groups=768)
            (norm): LayerNorm()
            (pwconv1): Linear(in_features=768, out_features=3072, bias=True)
            (act): GELU(approximate='none')
            (pwconv2): Linear(in_features=3072, out_features=768, bias=True)
            (drop_path): Identity()
          )
          (4): Block(
            (dwconv): Conv2d(768, 768, kernel_size=(7, 7), stride=(1, 1), padding=(3, 3), groups=768)
            (norm): LayerNorm()
            (pwconv1): Linear(in_features=768, out_features=3072, bias=True)
            (act): GELU(approximate='none')
            (pwconv2): Linear(in_features=3072, out_features=768, bias=True)
            (drop_path): Identity()
          )
          (5): Block(
            (dwconv): Conv2d(768, 768, kernel_size=(7, 7), stride=(1, 1), padding=(3, 3), groups=768)
            (norm): LayerNorm()
            (pwconv1): Linear(in_features=768, out_features=3072, bias=True)
            (act): GELU(approximate='none')
            (pwconv2): Linear(in_features=3072, out_features=768, bias=True)
            (drop_path): Identity()
          )
          (6): Block(
            (dwconv): Conv2d(768, 768, kernel_size=(7, 7), stride=(1, 1), padding=(3, 3), groups=768)
            (norm): LayerNorm()
            (pwconv1): Linear(in_features=768, out_features=3072, bias=True)
            (act): GELU(approximate='none')
            (pwconv2): Linear(in_features=3072, out_features=768, bias=True)
            (drop_path): Identity()
          )
          (7): Block(
            (dwconv): Conv2d(768, 768, kernel_size=(7, 7), stride=(1, 1), padding=(3, 3), groups=768)
            (norm): LayerNorm()
            (pwconv1): Linear(in_features=768, out_features=3072, bias=True)
            (act): GELU(approximate='none')
            (pwconv2): Linear(in_features=3072, out_features=768, bias=True)
            (drop_path): Identity()
          )
          (8): Block(
            (dwconv): Conv2d(768, 768, kernel_size=(7, 7), stride=(1, 1), padding=(3, 3), groups=768)
            (norm): LayerNorm()
            (pwconv1): Linear(in_features=768, out_features=3072, bias=True)
            (act): GELU(approximate='none')
            (pwconv2): Linear(in_features=3072, out_features=768, bias=True)
            (drop_path): Identity()
          )
          (9): Block(
            (dwconv): Conv2d(768, 768, kernel_size=(7, 7), stride=(1, 1), padding=(3, 3), groups=768)
            (norm): LayerNorm()
            (pwconv1): Linear(in_features=768, out_features=3072, bias=True)
            (act): GELU(approximate='none')
            (pwconv2): Linear(in_features=3072, out_features=768, bias=True)
            (drop_path): Identity()
          )
          (10): Block(
            (dwconv): Conv2d(768, 768, kernel_size=(7, 7), stride=(1, 1), padding=(3, 3), groups=768)
            (norm): LayerNorm()
            (pwconv1): Linear(in_features=768, out_features=3072, bias=True)
            (act): GELU(approximate='none')
            (pwconv2): Linear(in_features=3072, out_features=768, bias=True)
            (drop_path): Identity()
          )
          (11): Block(
            (dwconv): Conv2d(768, 768, kernel_size=(7, 7), stride=(1, 1), padding=(3, 3), groups=768)
            (norm): LayerNorm()
            (pwconv1): Linear(in_features=768, out_features=3072, bias=True)
            (act): GELU(approximate='none')
            (pwconv2): Linear(in_features=3072, out_features=768, bias=True)
            (drop_path): Identity()
          )
          (12): Block(
            (dwconv): Conv2d(768, 768, kernel_size=(7, 7), stride=(1, 1), padding=(3, 3), groups=768)
            (norm): LayerNorm()
            (pwconv1): Linear(in_features=768, out_features=3072, bias=True)
            (act): GELU(approximate='none')
            (pwconv2): Linear(in_features=3072, out_features=768, bias=True)
            (drop_path): Identity()
          )
          (13): Block(
            (dwconv): Conv2d(768, 768, kernel_size=(7, 7), stride=(1, 1), padding=(3, 3), groups=768)
            (norm): LayerNorm()
            (pwconv1): Linear(in_features=768, out_features=3072, bias=True)
            (act): GELU(approximate='none')
            (pwconv2): Linear(in_features=3072, out_features=768, bias=True)
            (drop_path): Identity()
          )
          (14): Block(
            (dwconv): Conv2d(768, 768, kernel_size=(7, 7), stride=(1, 1), padding=(3, 3), groups=768)
            (norm): LayerNorm()
            (pwconv1): Linear(in_features=768, out_features=3072, bias=True)
            (act): GELU(approximate='none')
            (pwconv2): Linear(in_features=3072, out_features=768, bias=True)
            (drop_path): Identity()
          )
          (15): Block(
            (dwconv): Conv2d(768, 768, kernel_size=(7, 7), stride=(1, 1), padding=(3, 3), groups=768)
            (norm): LayerNorm()
            (pwconv1): Linear(in_features=768, out_features=3072, bias=True)
            (act): GELU(approximate='none')
            (pwconv2): Linear(in_features=3072, out_features=768, bias=True)
            (drop_path): Identity()
          )
          (16): Block(
            (dwconv): Conv2d(768, 768, kernel_size=(7, 7), stride=(1, 1), padding=(3, 3), groups=768)
            (norm): LayerNorm()
            (pwconv1): Linear(in_features=768, out_features=3072, bias=True)
            (act): GELU(approximate='none')
            (pwconv2): Linear(in_features=3072, out_features=768, bias=True)
            (drop_path): Identity()
          )
          (17): Block(
            (dwconv): Conv2d(768, 768, kernel_size=(7, 7), stride=(1, 1), padding=(3, 3), groups=768)
            (norm): LayerNorm()
            (pwconv1): Linear(in_features=768, out_features=3072, bias=True)
            (act): GELU(approximate='none')
            (pwconv2): Linear(in_features=3072, out_features=768, bias=True)
            (drop_path): Identity()
          )
          (18): Block(
            (dwconv): Conv2d(768, 768, kernel_size=(7, 7), stride=(1, 1), padding=(3, 3), groups=768)
            (norm): LayerNorm()
            (pwconv1): Linear(in_features=768, out_features=3072, bias=True)
            (act): GELU(approximate='none')
            (pwconv2): Linear(in_features=3072, out_features=768, bias=True)
            (drop_path): Identity()
          )
          (19): Block(
            (dwconv): Conv2d(768, 768, kernel_size=(7, 7), stride=(1, 1), padding=(3, 3), groups=768)
            (norm): LayerNorm()
            (pwconv1): Linear(in_features=768, out_features=3072, bias=True)
            (act): GELU(approximate='none')
            (pwconv2): Linear(in_features=3072, out_features=768, bias=True)
            (drop_path): Identity()
          )
          (20): Block(
            (dwconv): Conv2d(768, 768, kernel_size=(7, 7), stride=(1, 1), padding=(3, 3), groups=768)
            (norm): LayerNorm()
            (pwconv1): Linear(in_features=768, out_features=3072, bias=True)
            (act): GELU(approximate='none')
            (pwconv2): Linear(in_features=3072, out_features=768, bias=True)
            (drop_path): Identity()
          )
          (21): Block(
            (dwconv): Conv2d(768, 768, kernel_size=(7, 7), stride=(1, 1), padding=(3, 3), groups=768)
            (norm): LayerNorm()
            (pwconv1): Linear(in_features=768, out_features=3072, bias=True)
            (act): GELU(approximate='none')
            (pwconv2): Linear(in_features=3072, out_features=768, bias=True)
            (drop_path): Identity()
          )
          (22): Block(
            (dwconv): Conv2d(768, 768, kernel_size=(7, 7), stride=(1, 1), padding=(3, 3), groups=768)
            (norm): LayerNorm()
            (pwconv1): Linear(in_features=768, out_features=3072, bias=True)
            (act): GELU(approximate='none')
            (pwconv2): Linear(in_features=3072, out_features=768, bias=True)
            (drop_path): Identity()
          )
          (23): Block(
            (dwconv): Conv2d(768, 768, kernel_size=(7, 7), stride=(1, 1), padding=(3, 3), groups=768)
            (norm): LayerNorm()
            (pwconv1): Linear(in_features=768, out_features=3072, bias=True)
            (act): GELU(approximate='none')
            (pwconv2): Linear(in_features=3072, out_features=768, bias=True)
            (drop_path): Identity()
          )
          (24): Block(
            (dwconv): Conv2d(768, 768, kernel_size=(7, 7), stride=(1, 1), padding=(3, 3), groups=768)
            (norm): LayerNorm()
            (pwconv1): Linear(in_features=768, out_features=3072, bias=True)
            (act): GELU(approximate='none')
            (pwconv2): Linear(in_features=3072, out_features=768, bias=True)
            (drop_path): Identity()
          )
          (25): Block(
            (dwconv): Conv2d(768, 768, kernel_size=(7, 7), stride=(1, 1), padding=(3, 3), groups=768)
            (norm): LayerNorm()
            (pwconv1): Linear(in_features=768, out_features=3072, bias=True)
            (act): GELU(approximate='none')
            (pwconv2): Linear(in_features=3072, out_features=768, bias=True)
            (drop_path): Identity()
          )
          (26): Block(
            (dwconv): Conv2d(768, 768, kernel_size=(7, 7), stride=(1, 1), padding=(3, 3), groups=768)
            (norm): LayerNorm()
            (pwconv1): Linear(in_features=768, out_features=3072, bias=True)
            (act): GELU(approximate='none')
            (pwconv2): Linear(in_features=3072, out_features=768, bias=True)
            (drop_path): Identity()
          )
        )
        (3): Sequential(
          (0): Block(
            (dwconv): Conv2d(1536, 1536, kernel_size=(7, 7), stride=(1, 1), padding=(3, 3), groups=1536)
            (norm): LayerNorm()
            (pwconv1): Linear(in_features=1536, out_features=6144, bias=True)
            (act): GELU(approximate='none')
            (pwconv2): Linear(in_features=6144, out_features=1536, bias=True)
            (drop_path): Identity()
          )
          (1): Block(
            (dwconv): Conv2d(1536, 1536, kernel_size=(7, 7), stride=(1, 1), padding=(3, 3), groups=1536)
            (norm): LayerNorm()
            (pwconv1): Linear(in_features=1536, out_features=6144, bias=True)
            (act): GELU(approximate='none')
            (pwconv2): Linear(in_features=6144, out_features=1536, bias=True)
            (drop_path): Identity()
          )
          (2): Block(
            (dwconv): Conv2d(1536, 1536, kernel_size=(7, 7), stride=(1, 1), padding=(3, 3), groups=1536)
            (norm): LayerNorm()
            (pwconv1): Linear(in_features=1536, out_features=6144, bias=True)
            (act): GELU(approximate='none')
            (pwconv2): Linear(in_features=6144, out_features=1536, bias=True)
            (drop_path): Identity()
          )
        )
      )
      (norm0): LayerNorm()
      (norm1): LayerNorm()
      (norm2): LayerNorm()
      (norm3): LayerNorm()
      (norm): LayerNorm((1536,), eps=1e-06, elementwise_affine=True)
    )
  )
  (decoder): Decoder(
    (layers): Sequential(
      (0): UnetBlockWide(
        (shuf): CustomPixelShuffle_ICNR(
          (conv): Sequential(
            (0): Conv2d(1536, 2048, kernel_size=(1, 1), stride=(1, 1), bias=False)
            (1): BatchNorm2d(2048, eps=1e-05, momentum=0.1, affine=True, track_running_stats=True)
          )
          (shuf): PixelShuffle(upscale_factor=2)
          (pad): ReplicationPad2d((1, 0, 1, 0))
          (blur): AvgPool2d(kernel_size=2, stride=1, padding=0)
          (relu): ReLU(inplace=True)
        )
        (bn): BatchNorm2d(768, eps=1e-05, momentum=0.1, affine=True, track_running_stats=True)
        (conv): Sequential(
          (0): Conv2d(1280, 512, kernel_size=(3, 3), stride=(1, 1), padding=(1, 1), bias=False)
          (1): ReLU(inplace=True)
          (2): BatchNorm2d(512, eps=1e-05, momentum=0.1, affine=True, track_running_stats=True)
        )
        (relu): ReLU()
      )
      (1): UnetBlockWide(
        (shuf): CustomPixelShuffle_ICNR(
          (conv): Sequential(
            (0): Conv2d(512, 2048, kernel_size=(1, 1), stride=(1, 1), bias=False)
            (1): BatchNorm2d(2048, eps=1e-05, momentum=0.1, affine=True, track_running_stats=True)
          )
          (shuf): PixelShuffle(upscale_factor=2)
          (pad): ReplicationPad2d((1, 0, 1, 0))
          (blur): AvgPool2d(kernel_size=2, stride=1, padding=0)
          (relu): ReLU(inplace=True)
        )
        (bn): BatchNorm2d(384, eps=1e-05, momentum=0.1, affine=True, track_running_stats=True)
        (conv): Sequential(
          (0): Conv2d(896, 512, kernel_size=(3, 3), stride=(1, 1), padding=(1, 1), bias=False)
          (1): ReLU(inplace=True)
          (2): BatchNorm2d(512, eps=1e-05, momentum=0.1, affine=True, track_running_stats=True)
        )
        (relu): ReLU()
      )
      (2): UnetBlockWide(
        (shuf): CustomPixelShuffle_ICNR(
          (conv): Sequential(
            (0): Conv2d(512, 1024, kernel_size=(1, 1), stride=(1, 1), bias=False)
            (1): BatchNorm2d(1024, eps=1e-05, momentum=0.1, affine=True, track_running_stats=True)
          )
          (shuf): PixelShuffle(upscale_factor=2)
          (pad): ReplicationPad2d((1, 0, 1, 0))
          (blur): AvgPool2d(kernel_size=2, stride=1, padding=0)
          (relu): ReLU(inplace=True)
        )
        (bn): BatchNorm2d(192, eps=1e-05, momentum=0.1, affine=True, track_running_stats=True)
        (conv): Sequential(
          (0): Conv2d(448, 256, kernel_size=(3, 3), stride=(1, 1), padding=(1, 1), bias=False)
          (1): ReLU(inplace=True)
          (2): BatchNorm2d(256, eps=1e-05, momentum=0.1, affine=True, track_running_stats=True)
        )
        (relu): ReLU()
      )
    )
    (last_shuf): CustomPixelShuffle_ICNR(
      (conv): Sequential(
        (0): Conv2d(256, 4096, kernel_size=(1, 1), stride=(1, 1))
      )
      (shuf): PixelShuffle(upscale_factor=4)
      (pad): ReplicationPad2d((1, 0, 1, 0))
      (blur): AvgPool2d(kernel_size=2, stride=1, padding=0)
      (relu): ReLU(inplace=True)
    )
    (color_decoder): MultiScaleColorDecoder(
      (pe_layer): PositionEmbeddingSine()
      (transformer_self_attention_layers): ModuleList(
        (0-8): 9 x SelfAttentionLayer(
          (self_attn): MultiheadAttention(
            (out_proj): NonDynamicallyQuantizableLinear(in_features=256, out_features=256, bias=True)
          )
          (norm): LayerNorm((256,), eps=1e-05, elementwise_affine=True)
          (dropout): Dropout(p=0.0, inplace=False)
        )
      )
      (transformer_cross_attention_layers): ModuleList(
        (0-8): 9 x CrossAttentionLayer(
          (multihead_attn): MultiheadAttention(
            (out_proj): NonDynamicallyQuantizableLinear(in_features=256, out_features=256, bias=True)
          )
          (norm): LayerNorm((256,), eps=1e-05, elementwise_affine=True)
          (dropout): Dropout(p=0.0, inplace=False)
        )
      )
      (transformer_ffn_layers): ModuleList(
        (0-8): 9 x FFNLayer(
          (linear1): Linear(in_features=256, out_features=2048, bias=True)
          (dropout): Dropout(p=0.0, inplace=False)
          (linear2): Linear(in_features=2048, out_features=256, bias=True)
          (norm): LayerNorm((256,), eps=1e-05, elementwise_affine=True)
        )
      )
      (decoder_norm): LayerNorm((256,), eps=1e-05, elementwise_affine=True)
      (query_feat): Embedding(100, 256)
      (query_embed): Embedding(100, 256)
      (level_embed): Embedding(3, 256)
      (input_proj): ModuleList(
        (0-1): 2 x Conv2d(512, 256, kernel_size=(1, 1), stride=(1, 1))
        (2): Conv2d(256, 256, kernel_size=(1, 1), stride=(1, 1))
      )
      (color_embed): MLP(
        (layers): ModuleList(
          (0-2): 3 x Linear(in_features=256, out_features=256, bias=True)
        )
      )
    )
  )
  (refine_net): Sequential(
    (0): Sequential(
      (0): Conv2d(103, 2, kernel_size=(1, 1), stride=(1, 1))
    )
  )
)
2024-05-07 17:46:22,263 INFO: Network [DynamicUNetDiscriminator] is created.
2024-05-07 17:46:22,268 INFO: Network: DistributedDataParallel - DynamicUNetDiscriminator, with parameters: 5,919,617
2024-05-07 17:46:22,268 INFO: DynamicUNetDiscriminator(
  (layers): Sequential(
    (0): Sequential(
      (0): Conv2d(3, 64, kernel_size=(4, 4), stride=(2, 2), padding=(1, 1))
      (1): ReLU(inplace=True)
    )
    (1): Sequential(
      (0): Conv2d(64, 64, kernel_size=(3, 3), stride=(1, 1), padding=(1, 1))
      (1): ReLU(inplace=True)
    )
    (2): Sequential(
      (0): Conv2d(64, 128, kernel_size=(4, 4), stride=(2, 2), padding=(1, 1))
      (1): ReLU(inplace=True)
      (2): SelfAttention(
        (query): Conv1d(128, 16, kernel_size=(1,), stride=(1,), bias=False)
        (key): Conv1d(128, 16, kernel_size=(1,), stride=(1,), bias=False)
        (value): Conv1d(128, 128, kernel_size=(1,), stride=(1,), bias=False)
      )
    )
    (3): Sequential(
      (0): Conv2d(128, 128, kernel_size=(3, 3), stride=(1, 1), padding=(1, 1))
      (1): ReLU(inplace=True)
    )
    (4): Sequential(
      (0): Conv2d(128, 256, kernel_size=(4, 4), stride=(2, 2), padding=(1, 1))
      (1): ReLU(inplace=True)
    )
    (5): Sequential(
      (0): Conv2d(256, 256, kernel_size=(3, 3), stride=(1, 1), padding=(1, 1))
      (1): ReLU(inplace=True)
    )
    (6): Sequential(
      (0): Conv2d(256, 512, kernel_size=(4, 4), stride=(2, 2), padding=(1, 1))
      (1): ReLU(inplace=True)
    )
    (7): Sequential(
      (0): Conv2d(512, 512, kernel_size=(3, 3), stride=(1, 1), padding=(1, 1))
      (1): ReLU(inplace=True)
    )
    (8): Sequential(
      (0): Conv2d(512, 1, kernel_size=(4, 4), stride=(1, 1), bias=False)
    )
  )
)
2024-05-07 17:46:22,268 INFO: Loss [L1Loss] is created.
2024-05-07 17:46:23,091 INFO: Loss [PerceptualLoss] is created.
2024-05-07 17:46:23,096 INFO: Loss [GANLoss] is created.
2024-05-07 17:46:23,096 INFO: Loss [ColorfulnessLoss] is created.
2024-05-07 17:46:23,379 INFO: Model [ColorModel] is created.
2024-05-07 17:46:29,085 INFO: Start training from epoch: 0, iter: 0
…
